GENERATION: 1
Model: "model"
_________________________________________________________________
 Layer (type)                Output Shape              Param #   
=================================================================
 input_1 (InputLayer)        [(None, 28, 28, 1)]       0         
                                                                 
 conv2d_2 (Conv2D)           (None, 28, 28, 8)         40        
                                                                 
 max_pooling2d_2 (MaxPooling  (None, 14, 14, 8)        0         
 2D)                                                             
                                                                 
 conv2d_3 (Conv2D)           (None, 14, 14, 9)         1161      
                                                                 
 max_pooling2d_3 (MaxPooling  (None, 7, 7, 9)          0         
 2D)                                                             
                                                                 
 flatten_1 (Flatten)         (None, 441)               0         
                                                                 
 dropout_1 (Dropout)         (None, 441)               0         
                                                                 
 dense_1 (Dense)             (None, 10)                4420      
                                                                 
=================================================================
Total params: 5,621
Trainable params: 5,621
Non-trainable params: 0
_________________________________________________________________
GENERATION: 2
Model: "model_1"
_________________________________________________________________
 Layer (type)                Output Shape              Param #   
=================================================================
 input_2 (InputLayer)        [(None, 28, 28, 1)]       0         
                                                                 
 conv2d_10 (Conv2D)          (None, 28, 28, 8)         40        
                                                                 
 max_pooling2d_10 (MaxPoolin  (None, 14, 14, 8)        0         
 g2D)                                                            
                                                                 
 conv2d_11 (Conv2D)          (None, 14, 14, 9)         1161      
                                                                 
 max_pooling2d_11 (MaxPoolin  (None, 7, 7, 9)          0         
 g2D)                                                            
                                                                 
 flatten_5 (Flatten)         (None, 441)               0         
                                                                 
 dropout_5 (Dropout)         (None, 441)               0         
                                                                 
 dense_5 (Dense)             (None, 10)                4420      
                                                                 
=================================================================
Total params: 5,621
Trainable params: 5,621
Non-trainable params: 0
_________________________________________________________________
GENERATION: 3
Model: "model_2"
_________________________________________________________________
 Layer (type)                Output Shape              Param #   
=================================================================
 input_3 (InputLayer)        [(None, 28, 28, 1)]       0         
                                                                 
 conv2d_20 (Conv2D)          (None, 28, 28, 8)         40        
                                                                 
 max_pooling2d_20 (MaxPoolin  (None, 14, 14, 8)        0         
 g2D)                                                            
                                                                 
 conv2d_21 (Conv2D)          (None, 14, 14, 9)         1161      
                                                                 
 max_pooling2d_21 (MaxPoolin  (None, 7, 7, 9)          0         
 g2D)                                                            
                                                                 
 flatten_10 (Flatten)        (None, 441)               0         
                                                                 
 dropout_10 (Dropout)        (None, 441)               0         
                                                                 
 dense_10 (Dense)            (None, 10)                4420      
                                                                 
=================================================================
Total params: 5,621
Trainable params: 5,621
Non-trainable params: 0
_________________________________________________________________
GENERATION: 4
Model: "model_3"
_________________________________________________________________
 Layer (type)                Output Shape              Param #   
=================================================================
 input_4 (InputLayer)        [(None, 28, 28, 1)]       0         
                                                                 
 conv2d_30 (Conv2D)          (None, 28, 28, 8)         40        
                                                                 
 max_pooling2d_30 (MaxPoolin  (None, 14, 14, 8)        0         
 g2D)                                                            
                                                                 
 conv2d_31 (Conv2D)          (None, 14, 14, 9)         1161      
                                                                 
 max_pooling2d_31 (MaxPoolin  (None, 7, 7, 9)          0         
 g2D)                                                            
                                                                 
 flatten_15 (Flatten)        (None, 441)               0         
                                                                 
 dropout_15 (Dropout)        (None, 441)               0         
                                                                 
 dense_15 (Dense)            (None, 10)                4420      
                                                                 
=================================================================
Total params: 5,621
Trainable params: 5,621
Non-trainable params: 0
_________________________________________________________________
GENERATION: 5
Model: "model_4"
_________________________________________________________________
 Layer (type)                Output Shape              Param #   
=================================================================
 input_5 (InputLayer)        [(None, 28, 28, 1)]       0         
                                                                 
 conv2d_40 (Conv2D)          (None, 28, 28, 8)         40        
                                                                 
 max_pooling2d_40 (MaxPoolin  (None, 14, 14, 8)        0         
 g2D)                                                            
                                                                 
 conv2d_41 (Conv2D)          (None, 14, 14, 9)         1161      
                                                                 
 max_pooling2d_41 (MaxPoolin  (None, 7, 7, 9)          0         
 g2D)                                                            
                                                                 
 flatten_20 (Flatten)        (None, 441)               0         
                                                                 
 dropout_20 (Dropout)        (None, 441)               0         
                                                                 
 dense_20 (Dense)            (None, 10)                4420      
                                                                 
=================================================================
Total params: 5,621
Trainable params: 5,621
Non-trainable params: 0
_________________________________________________________________
GENERATION: 6
Model: "model_5"
_________________________________________________________________
 Layer (type)                Output Shape              Param #   
=================================================================
 input_6 (InputLayer)        [(None, 28, 28, 1)]       0         
                                                                 
 conv2d_50 (Conv2D)          (None, 28, 28, 8)         40        
                                                                 
 max_pooling2d_50 (MaxPoolin  (None, 14, 14, 8)        0         
 g2D)                                                            
                                                                 
 conv2d_51 (Conv2D)          (None, 14, 14, 9)         1161      
                                                                 
 max_pooling2d_51 (MaxPoolin  (None, 7, 7, 9)          0         
 g2D)                                                            
                                                                 
 flatten_25 (Flatten)        (None, 441)               0         
                                                                 
 dropout_25 (Dropout)        (None, 441)               0         
                                                                 
 dense_25 (Dense)            (None, 10)                4420      
                                                                 
=================================================================
Total params: 5,621
Trainable params: 5,621
Non-trainable params: 0
_________________________________________________________________
GENERATION: 7
Model: "model_6"
_________________________________________________________________
 Layer (type)                Output Shape              Param #   
=================================================================
 input_7 (InputLayer)        [(None, 28, 28, 1)]       0         
                                                                 
 conv2d_60 (Conv2D)          (None, 28, 28, 8)         40        
                                                                 
 max_pooling2d_60 (MaxPoolin  (None, 14, 14, 8)        0         
 g2D)                                                            
                                                                 
 conv2d_61 (Conv2D)          (None, 14, 14, 9)         1161      
                                                                 
 max_pooling2d_61 (MaxPoolin  (None, 7, 7, 9)          0         
 g2D)                                                            
                                                                 
 flatten_30 (Flatten)        (None, 441)               0         
                                                                 
 dropout_30 (Dropout)        (None, 441)               0         
                                                                 
 dense_30 (Dense)            (None, 10)                4420      
                                                                 
=================================================================
Total params: 5,621
Trainable params: 5,621
Non-trainable params: 0
_________________________________________________________________
GENERATION: 8
Model: "model_7"
_________________________________________________________________
 Layer (type)                Output Shape              Param #   
=================================================================
 input_8 (InputLayer)        [(None, 28, 28, 1)]       0         
                                                                 
 conv2d_70 (Conv2D)          (None, 28, 28, 8)         40        
                                                                 
 max_pooling2d_70 (MaxPoolin  (None, 14, 14, 8)        0         
 g2D)                                                            
                                                                 
 conv2d_71 (Conv2D)          (None, 14, 14, 9)         1161      
                                                                 
 max_pooling2d_71 (MaxPoolin  (None, 7, 7, 9)          0         
 g2D)                                                            
                                                                 
 flatten_35 (Flatten)        (None, 441)               0         
                                                                 
 dropout_35 (Dropout)        (None, 441)               0         
                                                                 
 dense_35 (Dense)            (None, 10)                4420      
                                                                 
=================================================================
Total params: 5,621
Trainable params: 5,621
Non-trainable params: 0
_________________________________________________________________
GENERATION: 9
Model: "model_8"
_________________________________________________________________
 Layer (type)                Output Shape              Param #   
=================================================================
 input_9 (InputLayer)        [(None, 28, 28, 1)]       0         
                                                                 
 conv2d_86 (Conv2D)          (None, 14, 14, 8)         208       
                                                                 
 max_pooling2d_86 (MaxPoolin  (None, 7, 7, 8)          0         
 g2D)                                                            
                                                                 
 conv2d_87 (Conv2D)          (None, 7, 7, 9)           1161      
                                                                 
 max_pooling2d_87 (MaxPoolin  (None, 4, 4, 9)          0         
 g2D)                                                            
                                                                 
 flatten_43 (Flatten)        (None, 144)               0         
                                                                 
 dropout_43 (Dropout)        (None, 144)               0         
                                                                 
 dense_43 (Dense)            (None, 10)                1450      
                                                                 
=================================================================
Total params: 2,819
Trainable params: 2,819
Non-trainable params: 0
_________________________________________________________________
GENERATION: 10
Model: "model_9"
_________________________________________________________________
 Layer (type)                Output Shape              Param #   
=================================================================
 input_10 (InputLayer)       [(None, 28, 28, 1)]       0         
                                                                 
 conv2d_94 (Conv2D)          (None, 14, 14, 8)         208       
                                                                 
 max_pooling2d_94 (MaxPoolin  (None, 7, 7, 8)          0         
 g2D)                                                            
                                                                 
 conv2d_95 (Conv2D)          (None, 7, 7, 9)           1161      
                                                                 
 max_pooling2d_95 (MaxPoolin  (None, 4, 4, 9)          0         
 g2D)                                                            
                                                                 
 flatten_47 (Flatten)        (None, 144)               0         
                                                                 
 dropout_47 (Dropout)        (None, 144)               0         
                                                                 
 dense_47 (Dense)            (None, 10)                1450      
                                                                 
=================================================================
Total params: 2,819
Trainable params: 2,819
Non-trainable params: 0
_________________________________________________________________
GENERATION: 11
Model: "model_10"
_________________________________________________________________
 Layer (type)                Output Shape              Param #   
=================================================================
 input_11 (InputLayer)       [(None, 28, 28, 1)]       0         
                                                                 
 conv2d_104 (Conv2D)         (None, 14, 14, 8)         208       
                                                                 
 max_pooling2d_104 (MaxPooli  (None, 7, 7, 8)          0         
 ng2D)                                                           
                                                                 
 conv2d_105 (Conv2D)         (None, 7, 7, 9)           1161      
                                                                 
 max_pooling2d_105 (MaxPooli  (None, 4, 4, 9)          0         
 ng2D)                                                           
                                                                 
 flatten_52 (Flatten)        (None, 144)               0         
                                                                 
 dropout_52 (Dropout)        (None, 144)               0         
                                                                 
 dense_52 (Dense)            (None, 10)                1450      
                                                                 
=================================================================
Total params: 2,819
Trainable params: 2,819
Non-trainable params: 0
_________________________________________________________________
GENERATION: 12
Model: "model_11"
_________________________________________________________________
 Layer (type)                Output Shape              Param #   
=================================================================
 input_12 (InputLayer)       [(None, 28, 28, 1)]       0         
                                                                 
 conv2d_112 (Conv2D)         (None, 14, 14, 8)         208       
                                                                 
 max_pooling2d_112 (MaxPooli  (None, 7, 7, 8)          0         
 ng2D)                                                           
                                                                 
 conv2d_113 (Conv2D)         (None, 7, 7, 9)           1161      
                                                                 
 max_pooling2d_113 (MaxPooli  (None, 4, 4, 9)          0         
 ng2D)                                                           
                                                                 
 flatten_56 (Flatten)        (None, 144)               0         
                                                                 
 dropout_56 (Dropout)        (None, 144)               0         
                                                                 
 dense_56 (Dense)            (None, 10)                1450      
                                                                 
=================================================================
Total params: 2,819
Trainable params: 2,819
Non-trainable params: 0
_________________________________________________________________
GENERATION: 13
Model: "model_12"
_________________________________________________________________
 Layer (type)                Output Shape              Param #   
=================================================================
 input_13 (InputLayer)       [(None, 28, 28, 1)]       0         
                                                                 
 conv2d_122 (Conv2D)         (None, 14, 14, 8)         208       
                                                                 
 max_pooling2d_122 (MaxPooli  (None, 7, 7, 8)          0         
 ng2D)                                                           
                                                                 
 conv2d_123 (Conv2D)         (None, 7, 7, 9)           1161      
                                                                 
 max_pooling2d_123 (MaxPooli  (None, 4, 4, 9)          0         
 ng2D)                                                           
                                                                 
 flatten_61 (Flatten)        (None, 144)               0         
                                                                 
 dropout_61 (Dropout)        (None, 144)               0         
                                                                 
 dense_61 (Dense)            (None, 10)                1450      
                                                                 
=================================================================
Total params: 2,819
Trainable params: 2,819
Non-trainable params: 0
_________________________________________________________________
GENERATION: 14
Model: "model_13"
_________________________________________________________________
 Layer (type)                Output Shape              Param #   
=================================================================
 input_14 (InputLayer)       [(None, 28, 28, 1)]       0         
                                                                 
 conv2d_132 (Conv2D)         (None, 14, 14, 8)         208       
                                                                 
 max_pooling2d_132 (MaxPooli  (None, 7, 7, 8)          0         
 ng2D)                                                           
                                                                 
 conv2d_133 (Conv2D)         (None, 7, 7, 9)           1161      
                                                                 
 max_pooling2d_133 (MaxPooli  (None, 4, 4, 9)          0         
 ng2D)                                                           
                                                                 
 flatten_66 (Flatten)        (None, 144)               0         
                                                                 
 dropout_66 (Dropout)        (None, 144)               0         
                                                                 
 dense_66 (Dense)            (None, 10)                1450      
                                                                 
=================================================================
Total params: 2,819
Trainable params: 2,819
Non-trainable params: 0
_________________________________________________________________
GENERATION: 15
Model: "model_14"
_________________________________________________________________
 Layer (type)                Output Shape              Param #   
=================================================================
 input_15 (InputLayer)       [(None, 28, 28, 1)]       0         
                                                                 
 conv2d_142 (Conv2D)         (None, 14, 14, 8)         208       
                                                                 
 max_pooling2d_142 (MaxPooli  (None, 7, 7, 8)          0         
 ng2D)                                                           
                                                                 
 conv2d_143 (Conv2D)         (None, 7, 7, 9)           1161      
                                                                 
 max_pooling2d_143 (MaxPooli  (None, 4, 4, 9)          0         
 ng2D)                                                           
                                                                 
 flatten_71 (Flatten)        (None, 144)               0         
                                                                 
 dropout_71 (Dropout)        (None, 144)               0         
                                                                 
 dense_71 (Dense)            (None, 10)                1450      
                                                                 
=================================================================
Total params: 2,819
Trainable params: 2,819
Non-trainable params: 0
_________________________________________________________________
GENERATION: 16
Model: "model_15"
_________________________________________________________________
 Layer (type)                Output Shape              Param #   
=================================================================
 input_16 (InputLayer)       [(None, 28, 28, 1)]       0         
                                                                 
 conv2d_158 (Conv2D)         (None, 14, 14, 8)         208       
                                                                 
 max_pooling2d_158 (MaxPooli  (None, 7, 7, 8)          0         
 ng2D)                                                           
                                                                 
 conv2d_159 (Conv2D)         (None, 7, 7, 9)           1161      
                                                                 
 max_pooling2d_159 (MaxPooli  (None, 4, 4, 9)          0         
 ng2D)                                                           
                                                                 
 flatten_79 (Flatten)        (None, 144)               0         
                                                                 
 dropout_79 (Dropout)        (None, 144)               0         
                                                                 
 dense_79 (Dense)            (None, 10)                1450      
                                                                 
=================================================================
Total params: 2,819
Trainable params: 2,819
Non-trainable params: 0
_________________________________________________________________
GENERATION: 17
Model: "model_16"
_________________________________________________________________
 Layer (type)                Output Shape              Param #   
=================================================================
 input_17 (InputLayer)       [(None, 28, 28, 1)]       0         
                                                                 
 conv2d_164 (Conv2D)         (None, 14, 14, 8)         208       
                                                                 
 max_pooling2d_164 (MaxPooli  (None, 7, 7, 8)          0         
 ng2D)                                                           
                                                                 
 conv2d_165 (Conv2D)         (None, 7, 7, 9)           1161      
                                                                 
 max_pooling2d_165 (MaxPooli  (None, 4, 4, 9)          0         
 ng2D)                                                           
                                                                 
 flatten_82 (Flatten)        (None, 144)               0         
                                                                 
 dropout_82 (Dropout)        (None, 144)               0         
                                                                 
 dense_82 (Dense)            (None, 10)                1450      
                                                                 
=================================================================
Total params: 2,819
Trainable params: 2,819
Non-trainable params: 0
_________________________________________________________________
GENERATION: 18
Model: "model_17"
_________________________________________________________________
 Layer (type)                Output Shape              Param #   
=================================================================
 input_18 (InputLayer)       [(None, 28, 28, 1)]       0         
                                                                 
 conv2d_170 (Conv2D)         (None, 14, 14, 8)         208       
                                                                 
 max_pooling2d_170 (MaxPooli  (None, 7, 7, 8)          0         
 ng2D)                                                           
                                                                 
 conv2d_171 (Conv2D)         (None, 7, 7, 9)           1161      
                                                                 
 max_pooling2d_171 (MaxPooli  (None, 4, 4, 9)          0         
 ng2D)                                                           
                                                                 
 flatten_85 (Flatten)        (None, 144)               0         
                                                                 
 dropout_85 (Dropout)        (None, 144)               0         
                                                                 
 dense_85 (Dense)            (None, 10)                1450      
                                                                 
=================================================================
Total params: 2,819
Trainable params: 2,819
Non-trainable params: 0
_________________________________________________________________
GENERATION: 19
Model: "model_18"
_________________________________________________________________
 Layer (type)                Output Shape              Param #   
=================================================================
 input_19 (InputLayer)       [(None, 28, 28, 1)]       0         
                                                                 
 conv2d_180 (Conv2D)         (None, 14, 14, 8)         208       
                                                                 
 max_pooling2d_180 (MaxPooli  (None, 7, 7, 8)          0         
 ng2D)                                                           
                                                                 
 conv2d_181 (Conv2D)         (None, 7, 7, 9)           1161      
                                                                 
 max_pooling2d_181 (MaxPooli  (None, 4, 4, 9)          0         
 ng2D)                                                           
                                                                 
 flatten_90 (Flatten)        (None, 144)               0         
                                                                 
 dropout_90 (Dropout)        (None, 144)               0         
                                                                 
 dense_90 (Dense)            (None, 10)                1450      
                                                                 
=================================================================
Total params: 2,819
Trainable params: 2,819
Non-trainable params: 0
_________________________________________________________________
GENERATION: 20
Model: "model_19"
_________________________________________________________________
 Layer (type)                Output Shape              Param #   
=================================================================
 input_20 (InputLayer)       [(None, 28, 28, 1)]       0         
                                                                 
 conv2d_198 (Conv2D)         (None, 14, 14, 8)         208       
                                                                 
 max_pooling2d_198 (MaxPooli  (None, 7, 7, 8)          0         
 ng2D)                                                           
                                                                 
 conv2d_199 (Conv2D)         (None, 7, 7, 9)           1161      
                                                                 
 max_pooling2d_199 (MaxPooli  (None, 4, 4, 9)          0         
 ng2D)                                                           
                                                                 
 flatten_99 (Flatten)        (None, 144)               0         
                                                                 
 dropout_99 (Dropout)        (None, 144)               0         
                                                                 
 dense_99 (Dense)            (None, 10)                1450      
                                                                 
=================================================================
Total params: 2,819
Trainable params: 2,819
Non-trainable params: 0
_________________________________________________________________
GENERATION: 21
Model: "model_20"
_________________________________________________________________
 Layer (type)                Output Shape              Param #   
=================================================================
 input_21 (InputLayer)       [(None, 28, 28, 1)]       0         
                                                                 
 conv2d_204 (Conv2D)         (None, 14, 14, 8)         208       
                                                                 
 max_pooling2d_204 (MaxPooli  (None, 7, 7, 8)          0         
 ng2D)                                                           
                                                                 
 conv2d_205 (Conv2D)         (None, 7, 7, 9)           1161      
                                                                 
 max_pooling2d_205 (MaxPooli  (None, 4, 4, 9)          0         
 ng2D)                                                           
                                                                 
 flatten_102 (Flatten)       (None, 144)               0         
                                                                 
 dropout_102 (Dropout)       (None, 144)               0         
                                                                 
 dense_102 (Dense)           (None, 10)                1450      
                                                                 
=================================================================
Total params: 2,819
Trainable params: 2,819
Non-trainable params: 0
_________________________________________________________________
GENERATION: 22
Model: "model_21"
_________________________________________________________________
 Layer (type)                Output Shape              Param #   
=================================================================
 input_22 (InputLayer)       [(None, 28, 28, 1)]       0         
                                                                 
 conv2d_210 (Conv2D)         (None, 14, 14, 8)         208       
                                                                 
 max_pooling2d_210 (MaxPooli  (None, 7, 7, 8)          0         
 ng2D)                                                           
                                                                 
 conv2d_211 (Conv2D)         (None, 7, 7, 9)           1161      
                                                                 
 max_pooling2d_211 (MaxPooli  (None, 4, 4, 9)          0         
 ng2D)                                                           
                                                                 
 flatten_105 (Flatten)       (None, 144)               0         
                                                                 
 dropout_105 (Dropout)       (None, 144)               0         
                                                                 
 dense_105 (Dense)           (None, 10)                1450      
                                                                 
=================================================================
Total params: 2,819
Trainable params: 2,819
Non-trainable params: 0
_________________________________________________________________
GENERATION: 23
Model: "model_22"
_________________________________________________________________
 Layer (type)                Output Shape              Param #   
=================================================================
 input_23 (InputLayer)       [(None, 28, 28, 1)]       0         
                                                                 
 conv2d_226 (Conv2D)         (None, 14, 14, 8)         208       
                                                                 
 max_pooling2d_226 (MaxPooli  (None, 7, 7, 8)          0         
 ng2D)                                                           
                                                                 
 conv2d_227 (Conv2D)         (None, 7, 7, 9)           1161      
                                                                 
 max_pooling2d_227 (MaxPooli  (None, 4, 4, 9)          0         
 ng2D)                                                           
                                                                 
 flatten_113 (Flatten)       (None, 144)               0         
                                                                 
 dropout_113 (Dropout)       (None, 144)               0         
                                                                 
 dense_113 (Dense)           (None, 10)                1450      
                                                                 
=================================================================
Total params: 2,819
Trainable params: 2,819
Non-trainable params: 0
_________________________________________________________________
GENERATION: 24
Model: "model_23"
_________________________________________________________________
 Layer (type)                Output Shape              Param #   
=================================================================
 input_24 (InputLayer)       [(None, 28, 28, 1)]       0         
                                                                 
 conv2d_234 (Conv2D)         (None, 14, 14, 8)         208       
                                                                 
 max_pooling2d_234 (MaxPooli  (None, 7, 7, 8)          0         
 ng2D)                                                           
                                                                 
 conv2d_235 (Conv2D)         (None, 7, 7, 9)           1161      
                                                                 
 max_pooling2d_235 (MaxPooli  (None, 4, 4, 9)          0         
 ng2D)                                                           
                                                                 
 flatten_117 (Flatten)       (None, 144)               0         
                                                                 
 dropout_117 (Dropout)       (None, 144)               0         
                                                                 
 dense_117 (Dense)           (None, 10)                1450      
                                                                 
=================================================================
Total params: 2,819
Trainable params: 2,819
Non-trainable params: 0
_________________________________________________________________
GENERATION: 25
Model: "model_24"
_________________________________________________________________
 Layer (type)                Output Shape              Param #   
=================================================================
 input_25 (InputLayer)       [(None, 28, 28, 1)]       0         
                                                                 
 conv2d_244 (Conv2D)         (None, 14, 14, 8)         208       
                                                                 
 max_pooling2d_244 (MaxPooli  (None, 7, 7, 8)          0         
 ng2D)                                                           
                                                                 
 conv2d_245 (Conv2D)         (None, 7, 7, 9)           1161      
                                                                 
 max_pooling2d_245 (MaxPooli  (None, 4, 4, 9)          0         
 ng2D)                                                           
                                                                 
 flatten_122 (Flatten)       (None, 144)               0         
                                                                 
 dropout_122 (Dropout)       (None, 144)               0         
                                                                 
 dense_122 (Dense)           (None, 10)                1450      
                                                                 
=================================================================
Total params: 2,819
Trainable params: 2,819
Non-trainable params: 0
_________________________________________________________________
GENERATION: 26
Model: "model_25"
_________________________________________________________________
 Layer (type)                Output Shape              Param #   
=================================================================
 input_26 (InputLayer)       [(None, 28, 28, 1)]       0         
                                                                 
 conv2d_252 (Conv2D)         (None, 14, 14, 8)         208       
                                                                 
 max_pooling2d_252 (MaxPooli  (None, 7, 7, 8)          0         
 ng2D)                                                           
                                                                 
 conv2d_253 (Conv2D)         (None, 7, 7, 9)           1161      
                                                                 
 max_pooling2d_253 (MaxPooli  (None, 4, 4, 9)          0         
 ng2D)                                                           
                                                                 
 flatten_126 (Flatten)       (None, 144)               0         
                                                                 
 dropout_126 (Dropout)       (None, 144)               0         
                                                                 
 dense_126 (Dense)           (None, 10)                1450      
                                                                 
=================================================================
Total params: 2,819
Trainable params: 2,819
Non-trainable params: 0
_________________________________________________________________
GENERATION: 27
Model: "model_26"
_________________________________________________________________
 Layer (type)                Output Shape              Param #   
=================================================================
 input_27 (InputLayer)       [(None, 28, 28, 1)]       0         
                                                                 
 conv2d_262 (Conv2D)         (None, 14, 14, 8)         208       
                                                                 
 max_pooling2d_262 (MaxPooli  (None, 7, 7, 8)          0         
 ng2D)                                                           
                                                                 
 conv2d_263 (Conv2D)         (None, 7, 7, 9)           1161      
                                                                 
 max_pooling2d_263 (MaxPooli  (None, 4, 4, 9)          0         
 ng2D)                                                           
                                                                 
 flatten_131 (Flatten)       (None, 144)               0         
                                                                 
 dropout_131 (Dropout)       (None, 144)               0         
                                                                 
 dense_131 (Dense)           (None, 10)                1450      
                                                                 
=================================================================
Total params: 2,819
Trainable params: 2,819
Non-trainable params: 0
_________________________________________________________________
GENERATION: 28
Model: "model_27"
_________________________________________________________________
 Layer (type)                Output Shape              Param #   
=================================================================
 input_28 (InputLayer)       [(None, 28, 28, 1)]       0         
                                                                 
 conv2d_272 (Conv2D)         (None, 14, 14, 8)         208       
                                                                 
 max_pooling2d_272 (MaxPooli  (None, 7, 7, 8)          0         
 ng2D)                                                           
                                                                 
 conv2d_273 (Conv2D)         (None, 7, 7, 9)           1161      
                                                                 
 max_pooling2d_273 (MaxPooli  (None, 4, 4, 9)          0         
 ng2D)                                                           
                                                                 
 flatten_136 (Flatten)       (None, 144)               0         
                                                                 
 dropout_136 (Dropout)       (None, 144)               0         
                                                                 
 dense_136 (Dense)           (None, 10)                1450      
                                                                 
=================================================================
Total params: 2,819
Trainable params: 2,819
Non-trainable params: 0
_________________________________________________________________
GENERATION: 29
Model: "model_28"
_________________________________________________________________
 Layer (type)                Output Shape              Param #   
=================================================================
 input_29 (InputLayer)       [(None, 28, 28, 1)]       0         
                                                                 
 conv2d_282 (Conv2D)         (None, 14, 14, 8)         208       
                                                                 
 max_pooling2d_282 (MaxPooli  (None, 7, 7, 8)          0         
 ng2D)                                                           
                                                                 
 conv2d_283 (Conv2D)         (None, 7, 7, 9)           1161      
                                                                 
 max_pooling2d_283 (MaxPooli  (None, 4, 4, 9)          0         
 ng2D)                                                           
                                                                 
 flatten_141 (Flatten)       (None, 144)               0         
                                                                 
 dropout_141 (Dropout)       (None, 144)               0         
                                                                 
 dense_141 (Dense)           (None, 10)                1450      
                                                                 
=================================================================
Total params: 2,819
Trainable params: 2,819
Non-trainable params: 0
_________________________________________________________________
GENERATION: 30
Model: "model_29"
_________________________________________________________________
 Layer (type)                Output Shape              Param #   
=================================================================
 input_30 (InputLayer)       [(None, 28, 28, 1)]       0         
                                                                 
 conv2d_296 (Conv2D)         (None, 14, 14, 8)         208       
                                                                 
 max_pooling2d_296 (MaxPooli  (None, 7, 7, 8)          0         
 ng2D)                                                           
                                                                 
 conv2d_297 (Conv2D)         (None, 7, 7, 9)           1161      
                                                                 
 max_pooling2d_297 (MaxPooli  (None, 4, 4, 9)          0         
 ng2D)                                                           
                                                                 
 flatten_148 (Flatten)       (None, 144)               0         
                                                                 
 dropout_148 (Dropout)       (None, 144)               0         
                                                                 
 dense_148 (Dense)           (None, 10)                1450      
                                                                 
=================================================================
Total params: 2,819
Trainable params: 2,819
Non-trainable params: 0
_________________________________________________________________
GENERATION: 31
Model: "model_30"
_________________________________________________________________
 Layer (type)                Output Shape              Param #   
=================================================================
 input_31 (InputLayer)       [(None, 28, 28, 1)]       0         
                                                                 
 conv2d_304 (Conv2D)         (None, 14, 14, 8)         208       
                                                                 
 max_pooling2d_304 (MaxPooli  (None, 7, 7, 8)          0         
 ng2D)                                                           
                                                                 
 conv2d_305 (Conv2D)         (None, 7, 7, 9)           1161      
                                                                 
 max_pooling2d_305 (MaxPooli  (None, 4, 4, 9)          0         
 ng2D)                                                           
                                                                 
 flatten_152 (Flatten)       (None, 144)               0         
                                                                 
 dropout_152 (Dropout)       (None, 144)               0         
                                                                 
 dense_152 (Dense)           (None, 10)                1450      
                                                                 
=================================================================
Total params: 2,819
Trainable params: 2,819
Non-trainable params: 0
_________________________________________________________________
GENERATION: 32
Model: "model_31"
_________________________________________________________________
 Layer (type)                Output Shape              Param #   
=================================================================
 input_32 (InputLayer)       [(None, 28, 28, 1)]       0         
                                                                 
 conv2d_312 (Conv2D)         (None, 14, 14, 8)         208       
                                                                 
 max_pooling2d_312 (MaxPooli  (None, 7, 7, 8)          0         
 ng2D)                                                           
                                                                 
 conv2d_313 (Conv2D)         (None, 7, 7, 9)           1161      
                                                                 
 max_pooling2d_313 (MaxPooli  (None, 4, 4, 9)          0         
 ng2D)                                                           
                                                                 
 flatten_156 (Flatten)       (None, 144)               0         
                                                                 
 dropout_156 (Dropout)       (None, 144)               0         
                                                                 
 dense_156 (Dense)           (None, 10)                1450      
                                                                 
=================================================================
Total params: 2,819
Trainable params: 2,819
Non-trainable params: 0
_________________________________________________________________
GENERATION: 33
Model: "model_32"
_________________________________________________________________
 Layer (type)                Output Shape              Param #   
=================================================================
 input_33 (InputLayer)       [(None, 28, 28, 1)]       0         
                                                                 
 conv2d_320 (Conv2D)         (None, 14, 14, 8)         208       
                                                                 
 max_pooling2d_320 (MaxPooli  (None, 7, 7, 8)          0         
 ng2D)                                                           
                                                                 
 conv2d_321 (Conv2D)         (None, 7, 7, 9)           1161      
                                                                 
 max_pooling2d_321 (MaxPooli  (None, 4, 4, 9)          0         
 ng2D)                                                           
                                                                 
 flatten_160 (Flatten)       (None, 144)               0         
                                                                 
 dropout_160 (Dropout)       (None, 144)               0         
                                                                 
 dense_160 (Dense)           (None, 10)                1450      
                                                                 
=================================================================
Total params: 2,819
Trainable params: 2,819
Non-trainable params: 0
_________________________________________________________________
GENERATION: 34
Model: "model_33"
_________________________________________________________________
 Layer (type)                Output Shape              Param #   
=================================================================
 input_34 (InputLayer)       [(None, 28, 28, 1)]       0         
                                                                 
 conv2d_330 (Conv2D)         (None, 14, 14, 8)         208       
                                                                 
 max_pooling2d_330 (MaxPooli  (None, 7, 7, 8)          0         
 ng2D)                                                           
                                                                 
 conv2d_331 (Conv2D)         (None, 7, 7, 9)           1161      
                                                                 
 max_pooling2d_331 (MaxPooli  (None, 4, 4, 9)          0         
 ng2D)                                                           
                                                                 
 flatten_165 (Flatten)       (None, 144)               0         
                                                                 
 dropout_165 (Dropout)       (None, 144)               0         
                                                                 
 dense_165 (Dense)           (None, 10)                1450      
                                                                 
=================================================================
Total params: 2,819
Trainable params: 2,819
Non-trainable params: 0
_________________________________________________________________
GENERATION: 35
Model: "model_34"
_________________________________________________________________
 Layer (type)                Output Shape              Param #   
=================================================================
 input_35 (InputLayer)       [(None, 28, 28, 1)]       0         
                                                                 
 conv2d_348 (Conv2D)         (None, 14, 14, 8)         208       
                                                                 
 max_pooling2d_348 (MaxPooli  (None, 7, 7, 8)          0         
 ng2D)                                                           
                                                                 
 conv2d_349 (Conv2D)         (None, 7, 7, 9)           1161      
                                                                 
 max_pooling2d_349 (MaxPooli  (None, 4, 4, 9)          0         
 ng2D)                                                           
                                                                 
 flatten_174 (Flatten)       (None, 144)               0         
                                                                 
 dropout_174 (Dropout)       (None, 144)               0         
                                                                 
 dense_174 (Dense)           (None, 10)                1450      
                                                                 
=================================================================
Total params: 2,819
Trainable params: 2,819
Non-trainable params: 0
_________________________________________________________________
GENERATION: 36
Model: "model_35"
_________________________________________________________________
 Layer (type)                Output Shape              Param #   
=================================================================
 input_36 (InputLayer)       [(None, 28, 28, 1)]       0         
                                                                 
 conv2d_358 (Conv2D)         (None, 14, 14, 8)         208       
                                                                 
 max_pooling2d_358 (MaxPooli  (None, 7, 7, 8)          0         
 ng2D)                                                           
                                                                 
 conv2d_359 (Conv2D)         (None, 7, 7, 9)           657       
                                                                 
 max_pooling2d_359 (MaxPooli  (None, 4, 4, 9)          0         
 ng2D)                                                           
                                                                 
 flatten_179 (Flatten)       (None, 144)               0         
                                                                 
 dropout_179 (Dropout)       (None, 144)               0         
                                                                 
 dense_179 (Dense)           (None, 10)                1450      
                                                                 
=================================================================
Total params: 2,315
Trainable params: 2,315
Non-trainable params: 0
_________________________________________________________________
GENERATION: 37
Model: "model_36"
_________________________________________________________________
 Layer (type)                Output Shape              Param #   
=================================================================
 input_37 (InputLayer)       [(None, 28, 28, 1)]       0         
                                                                 
 conv2d_364 (Conv2D)         (None, 14, 14, 8)         208       
                                                                 
 max_pooling2d_364 (MaxPooli  (None, 7, 7, 8)          0         
 ng2D)                                                           
                                                                 
 conv2d_365 (Conv2D)         (None, 7, 7, 9)           657       
                                                                 
 max_pooling2d_365 (MaxPooli  (None, 4, 4, 9)          0         
 ng2D)                                                           
                                                                 
 flatten_182 (Flatten)       (None, 144)               0         
                                                                 
 dropout_182 (Dropout)       (None, 144)               0         
                                                                 
 dense_182 (Dense)           (None, 10)                1450      
                                                                 
=================================================================
Total params: 2,315
Trainable params: 2,315
Non-trainable params: 0
_________________________________________________________________
GENERATION: 38
Model: "model_37"
_________________________________________________________________
 Layer (type)                Output Shape              Param #   
=================================================================
 input_38 (InputLayer)       [(None, 28, 28, 1)]       0         
                                                                 
 conv2d_374 (Conv2D)         (None, 14, 14, 8)         208       
                                                                 
 max_pooling2d_374 (MaxPooli  (None, 7, 7, 8)          0         
 ng2D)                                                           
                                                                 
 conv2d_375 (Conv2D)         (None, 7, 7, 9)           657       
                                                                 
 max_pooling2d_375 (MaxPooli  (None, 4, 4, 9)          0         
 ng2D)                                                           
                                                                 
 flatten_187 (Flatten)       (None, 144)               0         
                                                                 
 dropout_187 (Dropout)       (None, 144)               0         
                                                                 
 dense_187 (Dense)           (None, 10)                1450      
                                                                 
=================================================================
Total params: 2,315
Trainable params: 2,315
Non-trainable params: 0
_________________________________________________________________
GENERATION: 39
Model: "model_38"
_________________________________________________________________
 Layer (type)                Output Shape              Param #   
=================================================================
 input_39 (InputLayer)       [(None, 28, 28, 1)]       0         
                                                                 
 conv2d_388 (Conv2D)         (None, 14, 14, 11)        286       
                                                                 
 max_pooling2d_388 (MaxPooli  (None, 7, 7, 11)         0         
 ng2D)                                                           
                                                                 
 conv2d_389 (Conv2D)         (None, 7, 7, 9)           900       
                                                                 
 max_pooling2d_389 (MaxPooli  (None, 4, 4, 9)          0         
 ng2D)                                                           
                                                                 
 flatten_194 (Flatten)       (None, 144)               0         
                                                                 
 dropout_194 (Dropout)       (None, 144)               0         
                                                                 
 dense_194 (Dense)           (None, 10)                1450      
                                                                 
=================================================================
Total params: 2,636
Trainable params: 2,636
Non-trainable params: 0
_________________________________________________________________
GENERATION: 40
Model: "model_39"
_________________________________________________________________
 Layer (type)                Output Shape              Param #   
=================================================================
 input_40 (InputLayer)       [(None, 28, 28, 1)]       0         
                                                                 
 conv2d_398 (Conv2D)         (None, 14, 14, 11)        286       
                                                                 
 max_pooling2d_398 (MaxPooli  (None, 7, 7, 11)         0         
 ng2D)                                                           
                                                                 
 conv2d_399 (Conv2D)         (None, 7, 7, 9)           900       
                                                                 
 max_pooling2d_399 (MaxPooli  (None, 4, 4, 9)          0         
 ng2D)                                                           
                                                                 
 flatten_199 (Flatten)       (None, 144)               0         
                                                                 
 dropout_199 (Dropout)       (None, 144)               0         
                                                                 
 dense_199 (Dense)           (None, 10)                1450      
                                                                 
=================================================================
Total params: 2,636
Trainable params: 2,636
Non-trainable params: 0
_________________________________________________________________
GENERATION: 41
Model: "model_40"
_________________________________________________________________
 Layer (type)                Output Shape              Param #   
=================================================================
 input_41 (InputLayer)       [(None, 28, 28, 1)]       0         
                                                                 
 conv2d_404 (Conv2D)         (None, 14, 14, 11)        286       
                                                                 
 max_pooling2d_404 (MaxPooli  (None, 7, 7, 11)         0         
 ng2D)                                                           
                                                                 
 conv2d_405 (Conv2D)         (None, 7, 7, 9)           900       
                                                                 
 max_pooling2d_405 (MaxPooli  (None, 4, 4, 9)          0         
 ng2D)                                                           
                                                                 
 flatten_202 (Flatten)       (None, 144)               0         
                                                                 
 dropout_202 (Dropout)       (None, 144)               0         
                                                                 
 dense_202 (Dense)           (None, 10)                1450      
                                                                 
=================================================================
Total params: 2,636
Trainable params: 2,636
Non-trainable params: 0
_________________________________________________________________
GENERATION: 42
Model: "model_41"
_________________________________________________________________
 Layer (type)                Output Shape              Param #   
=================================================================
 input_42 (InputLayer)       [(None, 28, 28, 1)]       0         
                                                                 
 conv2d_412 (Conv2D)         (None, 14, 14, 11)        286       
                                                                 
 max_pooling2d_412 (MaxPooli  (None, 7, 7, 11)         0         
 ng2D)                                                           
                                                                 
 conv2d_413 (Conv2D)         (None, 7, 7, 9)           900       
                                                                 
 max_pooling2d_413 (MaxPooli  (None, 4, 4, 9)          0         
 ng2D)                                                           
                                                                 
 flatten_206 (Flatten)       (None, 144)               0         
                                                                 
 dropout_206 (Dropout)       (None, 144)               0         
                                                                 
 dense_206 (Dense)           (None, 10)                1450      
                                                                 
=================================================================
Total params: 2,636
Trainable params: 2,636
Non-trainable params: 0
_________________________________________________________________
GENERATION: 43
Model: "model_42"
_________________________________________________________________
 Layer (type)                Output Shape              Param #   
=================================================================
 input_43 (InputLayer)       [(None, 28, 28, 1)]       0         
                                                                 
 conv2d_422 (Conv2D)         (None, 14, 14, 11)        286       
                                                                 
 max_pooling2d_422 (MaxPooli  (None, 7, 7, 11)         0         
 ng2D)                                                           
                                                                 
 conv2d_423 (Conv2D)         (None, 7, 7, 9)           900       
                                                                 
 max_pooling2d_423 (MaxPooli  (None, 4, 4, 9)          0         
 ng2D)                                                           
                                                                 
 flatten_211 (Flatten)       (None, 144)               0         
                                                                 
 dropout_211 (Dropout)       (None, 144)               0         
                                                                 
 dense_211 (Dense)           (None, 10)                1450      
                                                                 
=================================================================
Total params: 2,636
Trainable params: 2,636
Non-trainable params: 0
_________________________________________________________________
GENERATION: 44
Model: "model_43"
_________________________________________________________________
 Layer (type)                Output Shape              Param #   
=================================================================
 input_44 (InputLayer)       [(None, 28, 28, 1)]       0         
                                                                 
 conv2d_432 (Conv2D)         (None, 14, 14, 11)        286       
                                                                 
 max_pooling2d_432 (MaxPooli  (None, 7, 7, 11)         0         
 ng2D)                                                           
                                                                 
 conv2d_433 (Conv2D)         (None, 7, 7, 9)           900       
                                                                 
 max_pooling2d_433 (MaxPooli  (None, 4, 4, 9)          0         
 ng2D)                                                           
                                                                 
 flatten_216 (Flatten)       (None, 144)               0         
                                                                 
 dropout_216 (Dropout)       (None, 144)               0         
                                                                 
 dense_216 (Dense)           (None, 10)                1450      
                                                                 
=================================================================
Total params: 2,636
Trainable params: 2,636
Non-trainable params: 0
_________________________________________________________________
GENERATION: 45
Model: "model_44"
_________________________________________________________________
 Layer (type)                Output Shape              Param #   
=================================================================
 input_45 (InputLayer)       [(None, 28, 28, 1)]       0         
                                                                 
 conv2d_442 (Conv2D)         (None, 14, 14, 11)        286       
                                                                 
 max_pooling2d_442 (MaxPooli  (None, 7, 7, 11)         0         
 ng2D)                                                           
                                                                 
 conv2d_443 (Conv2D)         (None, 7, 7, 9)           900       
                                                                 
 max_pooling2d_443 (MaxPooli  (None, 4, 4, 9)          0         
 ng2D)                                                           
                                                                 
 flatten_221 (Flatten)       (None, 144)               0         
                                                                 
 dropout_221 (Dropout)       (None, 144)               0         
                                                                 
 dense_221 (Dense)           (None, 10)                1450      
                                                                 
=================================================================
Total params: 2,636
Trainable params: 2,636
Non-trainable params: 0
_________________________________________________________________
GENERATION: 46
Model: "model_45"
_________________________________________________________________
 Layer (type)                Output Shape              Param #   
=================================================================
 input_46 (InputLayer)       [(None, 28, 28, 1)]       0         
                                                                 
 conv2d_458 (Conv2D)         (None, 14, 14, 11)        286       
                                                                 
 max_pooling2d_458 (MaxPooli  (None, 7, 7, 11)         0         
 ng2D)                                                           
                                                                 
 conv2d_459 (Conv2D)         (None, 4, 4, 9)           900       
                                                                 
 max_pooling2d_459 (MaxPooli  (None, 2, 2, 9)          0         
 ng2D)                                                           
                                                                 
 flatten_229 (Flatten)       (None, 36)                0         
                                                                 
 dropout_229 (Dropout)       (None, 36)                0         
                                                                 
 dense_229 (Dense)           (None, 10)                370       
                                                                 
=================================================================
Total params: 1,556
Trainable params: 1,556
Non-trainable params: 0
_________________________________________________________________
GENERATION: 47
Model: "model_46"
_________________________________________________________________
 Layer (type)                Output Shape              Param #   
=================================================================
 input_47 (InputLayer)       [(None, 28, 28, 1)]       0         
                                                                 
 conv2d_464 (Conv2D)         (None, 14, 14, 11)        286       
                                                                 
 max_pooling2d_464 (MaxPooli  (None, 7, 7, 11)         0         
 ng2D)                                                           
                                                                 
 conv2d_465 (Conv2D)         (None, 4, 4, 9)           900       
                                                                 
 max_pooling2d_465 (MaxPooli  (None, 2, 2, 9)          0         
 ng2D)                                                           
                                                                 
 flatten_232 (Flatten)       (None, 36)                0         
                                                                 
 dropout_232 (Dropout)       (None, 36)                0         
                                                                 
 dense_232 (Dense)           (None, 10)                370       
                                                                 
=================================================================
Total params: 1,556
Trainable params: 1,556
Non-trainable params: 0
_________________________________________________________________
GENERATION: 48
Model: "model_47"
_________________________________________________________________
 Layer (type)                Output Shape              Param #   
=================================================================
 input_48 (InputLayer)       [(None, 28, 28, 1)]       0         
                                                                 
 conv2d_472 (Conv2D)         (None, 14, 14, 11)        286       
                                                                 
 max_pooling2d_472 (MaxPooli  (None, 7, 7, 11)         0         
 ng2D)                                                           
                                                                 
 conv2d_473 (Conv2D)         (None, 4, 4, 9)           900       
                                                                 
 max_pooling2d_473 (MaxPooli  (None, 2, 2, 9)          0         
 ng2D)                                                           
                                                                 
 flatten_236 (Flatten)       (None, 36)                0         
                                                                 
 dropout_236 (Dropout)       (None, 36)                0         
                                                                 
 dense_236 (Dense)           (None, 10)                370       
                                                                 
=================================================================
Total params: 1,556
Trainable params: 1,556
Non-trainable params: 0
_________________________________________________________________
GENERATION: 49
Model: "model_48"
_________________________________________________________________
 Layer (type)                Output Shape              Param #   
=================================================================
 input_49 (InputLayer)       [(None, 28, 28, 1)]       0         
                                                                 
 conv2d_482 (Conv2D)         (None, 14, 14, 11)        286       
                                                                 
 max_pooling2d_482 (MaxPooli  (None, 7, 7, 11)         0         
 ng2D)                                                           
                                                                 
 conv2d_483 (Conv2D)         (None, 4, 4, 9)           900       
                                                                 
 max_pooling2d_483 (MaxPooli  (None, 2, 2, 9)          0         
 ng2D)                                                           
                                                                 
 flatten_241 (Flatten)       (None, 36)                0         
                                                                 
 dropout_241 (Dropout)       (None, 36)                0         
                                                                 
 dense_241 (Dense)           (None, 10)                370       
                                                                 
=================================================================
Total params: 1,556
Trainable params: 1,556
Non-trainable params: 0
_________________________________________________________________
GENERATION: 50
Model: "model_49"
_________________________________________________________________
 Layer (type)                Output Shape              Param #   
=================================================================
 input_50 (InputLayer)       [(None, 28, 28, 1)]       0         
                                                                 
 conv2d_492 (Conv2D)         (None, 14, 14, 11)        286       
                                                                 
 max_pooling2d_492 (MaxPooli  (None, 7, 7, 11)         0         
 ng2D)                                                           
                                                                 
 conv2d_493 (Conv2D)         (None, 4, 4, 9)           900       
                                                                 
 max_pooling2d_493 (MaxPooli  (None, 2, 2, 9)          0         
 ng2D)                                                           
                                                                 
 flatten_246 (Flatten)       (None, 36)                0         
                                                                 
 dropout_246 (Dropout)       (None, 36)                0         
                                                                 
 dense_246 (Dense)           (None, 10)                370       
                                                                 
=================================================================
Total params: 1,556
Trainable params: 1,556
Non-trainable params: 0
_________________________________________________________________
GENERATION: 51
Model: "model_50"
_________________________________________________________________
 Layer (type)                Output Shape              Param #   
=================================================================
 input_51 (InputLayer)       [(None, 28, 28, 1)]       0         
                                                                 
 conv2d_502 (Conv2D)         (None, 14, 14, 11)        286       
                                                                 
 max_pooling2d_502 (MaxPooli  (None, 7, 7, 11)         0         
 ng2D)                                                           
                                                                 
 conv2d_503 (Conv2D)         (None, 4, 4, 9)           900       
                                                                 
 max_pooling2d_503 (MaxPooli  (None, 2, 2, 9)          0         
 ng2D)                                                           
                                                                 
 flatten_251 (Flatten)       (None, 36)                0         
                                                                 
 dropout_251 (Dropout)       (None, 36)                0         
                                                                 
 dense_251 (Dense)           (None, 10)                370       
                                                                 
=================================================================
Total params: 1,556
Trainable params: 1,556
Non-trainable params: 0
_________________________________________________________________
GENERATION: 52
Model: "model_51"
_________________________________________________________________
 Layer (type)                Output Shape              Param #   
=================================================================
 input_52 (InputLayer)       [(None, 28, 28, 1)]       0         
                                                                 
 conv2d_512 (Conv2D)         (None, 14, 14, 11)        286       
                                                                 
 max_pooling2d_512 (MaxPooli  (None, 7, 7, 11)         0         
 ng2D)                                                           
                                                                 
 conv2d_513 (Conv2D)         (None, 4, 4, 9)           900       
                                                                 
 max_pooling2d_513 (MaxPooli  (None, 2, 2, 9)          0         
 ng2D)                                                           
                                                                 
 flatten_256 (Flatten)       (None, 36)                0         
                                                                 
 dropout_256 (Dropout)       (None, 36)                0         
                                                                 
 dense_256 (Dense)           (None, 10)                370       
                                                                 
=================================================================
Total params: 1,556
Trainable params: 1,556
Non-trainable params: 0
_________________________________________________________________
GENERATION: 53
Model: "model_52"
_________________________________________________________________
 Layer (type)                Output Shape              Param #   
=================================================================
 input_53 (InputLayer)       [(None, 28, 28, 1)]       0         
                                                                 
 conv2d_522 (Conv2D)         (None, 14, 14, 11)        286       
                                                                 
 max_pooling2d_522 (MaxPooli  (None, 7, 7, 11)         0         
 ng2D)                                                           
                                                                 
 conv2d_523 (Conv2D)         (None, 4, 4, 9)           900       
                                                                 
 max_pooling2d_523 (MaxPooli  (None, 2, 2, 9)          0         
 ng2D)                                                           
                                                                 
 flatten_261 (Flatten)       (None, 36)                0         
                                                                 
 dropout_261 (Dropout)       (None, 36)                0         
                                                                 
 dense_261 (Dense)           (None, 10)                370       
                                                                 
=================================================================
Total params: 1,556
Trainable params: 1,556
Non-trainable params: 0
_________________________________________________________________
GENERATION: 54
Model: "model_53"
_________________________________________________________________
 Layer (type)                Output Shape              Param #   
=================================================================
 input_54 (InputLayer)       [(None, 28, 28, 1)]       0         
                                                                 
 conv2d_532 (Conv2D)         (None, 14, 14, 11)        286       
                                                                 
 max_pooling2d_532 (MaxPooli  (None, 7, 7, 11)         0         
 ng2D)                                                           
                                                                 
 conv2d_533 (Conv2D)         (None, 4, 4, 9)           900       
                                                                 
 max_pooling2d_533 (MaxPooli  (None, 2, 2, 9)          0         
 ng2D)                                                           
                                                                 
 flatten_266 (Flatten)       (None, 36)                0         
                                                                 
 dropout_266 (Dropout)       (None, 36)                0         
                                                                 
 dense_266 (Dense)           (None, 10)                370       
                                                                 
=================================================================
Total params: 1,556
Trainable params: 1,556
Non-trainable params: 0
_________________________________________________________________
GENERATION: 55
Model: "model_54"
_________________________________________________________________
 Layer (type)                Output Shape              Param #   
=================================================================
 input_55 (InputLayer)       [(None, 28, 28, 1)]       0         
                                                                 
 conv2d_542 (Conv2D)         (None, 14, 14, 11)        286       
                                                                 
 max_pooling2d_542 (MaxPooli  (None, 7, 7, 11)         0         
 ng2D)                                                           
                                                                 
 conv2d_543 (Conv2D)         (None, 4, 4, 9)           900       
                                                                 
 max_pooling2d_543 (MaxPooli  (None, 2, 2, 9)          0         
 ng2D)                                                           
                                                                 
 flatten_271 (Flatten)       (None, 36)                0         
                                                                 
 dropout_271 (Dropout)       (None, 36)                0         
                                                                 
 dense_271 (Dense)           (None, 10)                370       
                                                                 
=================================================================
Total params: 1,556
Trainable params: 1,556
Non-trainable params: 0
_________________________________________________________________
GENERATION: 56
Model: "model_55"
_________________________________________________________________
 Layer (type)                Output Shape              Param #   
=================================================================
 input_56 (InputLayer)       [(None, 28, 28, 1)]       0         
                                                                 
 conv2d_558 (Conv2D)         (None, 14, 14, 11)        286       
                                                                 
 max_pooling2d_558 (MaxPooli  (None, 7, 7, 11)         0         
 ng2D)                                                           
                                                                 
 conv2d_559 (Conv2D)         (None, 4, 4, 9)           900       
                                                                 
 max_pooling2d_559 (MaxPooli  (None, 2, 2, 9)          0         
 ng2D)                                                           
                                                                 
 flatten_279 (Flatten)       (None, 36)                0         
                                                                 
 dropout_279 (Dropout)       (None, 36)                0         
                                                                 
 dense_279 (Dense)           (None, 10)                370       
                                                                 
=================================================================
Total params: 1,556
Trainable params: 1,556
Non-trainable params: 0
_________________________________________________________________
GENERATION: 57
Model: "model_56"
_________________________________________________________________
 Layer (type)                Output Shape              Param #   
=================================================================
 input_57 (InputLayer)       [(None, 28, 28, 1)]       0         
                                                                 
 conv2d_564 (Conv2D)         (None, 14, 14, 11)        286       
                                                                 
 max_pooling2d_564 (MaxPooli  (None, 7, 7, 11)         0         
 ng2D)                                                           
                                                                 
 conv2d_565 (Conv2D)         (None, 4, 4, 9)           900       
                                                                 
 max_pooling2d_565 (MaxPooli  (None, 2, 2, 9)          0         
 ng2D)                                                           
                                                                 
 flatten_282 (Flatten)       (None, 36)                0         
                                                                 
 dropout_282 (Dropout)       (None, 36)                0         
                                                                 
 dense_282 (Dense)           (None, 10)                370       
                                                                 
=================================================================
Total params: 1,556
Trainable params: 1,556
Non-trainable params: 0
_________________________________________________________________
GENERATION: 58
Model: "model_57"
_________________________________________________________________
 Layer (type)                Output Shape              Param #   
=================================================================
 input_58 (InputLayer)       [(None, 28, 28, 1)]       0         
                                                                 
 conv2d_574 (Conv2D)         (None, 14, 14, 11)        286       
                                                                 
 max_pooling2d_574 (MaxPooli  (None, 7, 7, 11)         0         
 ng2D)                                                           
                                                                 
 conv2d_575 (Conv2D)         (None, 4, 4, 9)           900       
                                                                 
 max_pooling2d_575 (MaxPooli  (None, 2, 2, 9)          0         
 ng2D)                                                           
                                                                 
 flatten_287 (Flatten)       (None, 36)                0         
                                                                 
 dropout_287 (Dropout)       (None, 36)                0         
                                                                 
 dense_287 (Dense)           (None, 10)                370       
                                                                 
=================================================================
Total params: 1,556
Trainable params: 1,556
Non-trainable params: 0
_________________________________________________________________
GENERATION: 59
Model: "model_58"
_________________________________________________________________
 Layer (type)                Output Shape              Param #   
=================================================================
 input_59 (InputLayer)       [(None, 28, 28, 1)]       0         
                                                                 
 conv2d_584 (Conv2D)         (None, 14, 14, 11)        286       
                                                                 
 max_pooling2d_584 (MaxPooli  (None, 7, 7, 11)         0         
 ng2D)                                                           
                                                                 
 conv2d_585 (Conv2D)         (None, 4, 4, 9)           900       
                                                                 
 max_pooling2d_585 (MaxPooli  (None, 2, 2, 9)          0         
 ng2D)                                                           
                                                                 
 flatten_292 (Flatten)       (None, 36)                0         
                                                                 
 dropout_292 (Dropout)       (None, 36)                0         
                                                                 
 dense_292 (Dense)           (None, 10)                370       
                                                                 
=================================================================
Total params: 1,556
Trainable params: 1,556
Non-trainable params: 0
_________________________________________________________________
GENERATION: 60
Model: "model_59"
_________________________________________________________________
 Layer (type)                Output Shape              Param #   
=================================================================
 input_60 (InputLayer)       [(None, 28, 28, 1)]       0         
                                                                 
 conv2d_594 (Conv2D)         (None, 14, 14, 11)        286       
                                                                 
 max_pooling2d_594 (MaxPooli  (None, 7, 7, 11)         0         
 ng2D)                                                           
                                                                 
 conv2d_595 (Conv2D)         (None, 4, 4, 9)           900       
                                                                 
 max_pooling2d_595 (MaxPooli  (None, 2, 2, 9)          0         
 ng2D)                                                           
                                                                 
 flatten_297 (Flatten)       (None, 36)                0         
                                                                 
 dropout_297 (Dropout)       (None, 36)                0         
                                                                 
 dense_297 (Dense)           (None, 10)                370       
                                                                 
=================================================================
Total params: 1,556
Trainable params: 1,556
Non-trainable params: 0
_________________________________________________________________
GENERATION: 61
Model: "model_60"
_________________________________________________________________
 Layer (type)                Output Shape              Param #   
=================================================================
 input_61 (InputLayer)       [(None, 28, 28, 1)]       0         
                                                                 
 conv2d_604 (Conv2D)         (None, 14, 14, 11)        286       
                                                                 
 max_pooling2d_604 (MaxPooli  (None, 7, 7, 11)         0         
 ng2D)                                                           
                                                                 
 conv2d_605 (Conv2D)         (None, 4, 4, 9)           900       
                                                                 
 max_pooling2d_605 (MaxPooli  (None, 2, 2, 9)          0         
 ng2D)                                                           
                                                                 
 flatten_302 (Flatten)       (None, 36)                0         
                                                                 
 dropout_302 (Dropout)       (None, 36)                0         
                                                                 
 dense_302 (Dense)           (None, 10)                370       
                                                                 
=================================================================
Total params: 1,556
Trainable params: 1,556
Non-trainable params: 0
_________________________________________________________________
GENERATION: 62
Model: "model_61"
_________________________________________________________________
 Layer (type)                Output Shape              Param #   
=================================================================
 input_62 (InputLayer)       [(None, 28, 28, 1)]       0         
                                                                 
 conv2d_614 (Conv2D)         (None, 14, 14, 11)        286       
                                                                 
 max_pooling2d_614 (MaxPooli  (None, 7, 7, 11)         0         
 ng2D)                                                           
                                                                 
 conv2d_615 (Conv2D)         (None, 4, 4, 9)           900       
                                                                 
 max_pooling2d_615 (MaxPooli  (None, 2, 2, 9)          0         
 ng2D)                                                           
                                                                 
 flatten_307 (Flatten)       (None, 36)                0         
                                                                 
 dropout_307 (Dropout)       (None, 36)                0         
                                                                 
 dense_307 (Dense)           (None, 10)                370       
                                                                 
=================================================================
Total params: 1,556
Trainable params: 1,556
Non-trainable params: 0
_________________________________________________________________
GENERATION: 63
Model: "model_62"
_________________________________________________________________
 Layer (type)                Output Shape              Param #   
=================================================================
 input_63 (InputLayer)       [(None, 28, 28, 1)]       0         
                                                                 
 conv2d_622 (Conv2D)         (None, 14, 14, 11)        286       
                                                                 
 max_pooling2d_622 (MaxPooli  (None, 7, 7, 11)         0         
 ng2D)                                                           
                                                                 
 conv2d_623 (Conv2D)         (None, 4, 4, 9)           900       
                                                                 
 max_pooling2d_623 (MaxPooli  (None, 2, 2, 9)          0         
 ng2D)                                                           
                                                                 
 flatten_311 (Flatten)       (None, 36)                0         
                                                                 
 dropout_311 (Dropout)       (None, 36)                0         
                                                                 
 dense_311 (Dense)           (None, 10)                370       
                                                                 
=================================================================
Total params: 1,556
Trainable params: 1,556
Non-trainable params: 0
_________________________________________________________________
GENERATION: 64
Model: "model_63"
_________________________________________________________________
 Layer (type)                Output Shape              Param #   
=================================================================
 input_64 (InputLayer)       [(None, 28, 28, 1)]       0         
                                                                 
 conv2d_636 (Conv2D)         (None, 14, 14, 11)        286       
                                                                 
 max_pooling2d_636 (MaxPooli  (None, 7, 7, 11)         0         
 ng2D)                                                           
                                                                 
 conv2d_637 (Conv2D)         (None, 4, 4, 9)           900       
                                                                 
 max_pooling2d_637 (MaxPooli  (None, 2, 2, 9)          0         
 ng2D)                                                           
                                                                 
 flatten_318 (Flatten)       (None, 36)                0         
                                                                 
 dropout_318 (Dropout)       (None, 36)                0         
                                                                 
 dense_318 (Dense)           (None, 10)                370       
                                                                 
=================================================================
Total params: 1,556
Trainable params: 1,556
Non-trainable params: 0
_________________________________________________________________
GENERATION: 65
Model: "model_64"
_________________________________________________________________
 Layer (type)                Output Shape              Param #   
=================================================================
 input_65 (InputLayer)       [(None, 28, 28, 1)]       0         
                                                                 
 conv2d_646 (Conv2D)         (None, 14, 14, 11)        286       
                                                                 
 max_pooling2d_646 (MaxPooli  (None, 7, 7, 11)         0         
 ng2D)                                                           
                                                                 
 conv2d_647 (Conv2D)         (None, 4, 4, 9)           900       
                                                                 
 max_pooling2d_647 (MaxPooli  (None, 2, 2, 9)          0         
 ng2D)                                                           
                                                                 
 flatten_323 (Flatten)       (None, 36)                0         
                                                                 
 dropout_323 (Dropout)       (None, 36)                0         
                                                                 
 dense_323 (Dense)           (None, 10)                370       
                                                                 
=================================================================
Total params: 1,556
Trainable params: 1,556
Non-trainable params: 0
_________________________________________________________________
GENERATION: 66
Model: "model_65"
_________________________________________________________________
 Layer (type)                Output Shape              Param #   
=================================================================
 input_66 (InputLayer)       [(None, 28, 28, 1)]       0         
                                                                 
 conv2d_654 (Conv2D)         (None, 14, 14, 11)        286       
                                                                 
 max_pooling2d_654 (MaxPooli  (None, 7, 7, 11)         0         
 ng2D)                                                           
                                                                 
 conv2d_655 (Conv2D)         (None, 4, 4, 9)           900       
                                                                 
 max_pooling2d_655 (MaxPooli  (None, 2, 2, 9)          0         
 ng2D)                                                           
                                                                 
 flatten_327 (Flatten)       (None, 36)                0         
                                                                 
 dropout_327 (Dropout)       (None, 36)                0         
                                                                 
 dense_327 (Dense)           (None, 10)                370       
                                                                 
=================================================================
Total params: 1,556
Trainable params: 1,556
Non-trainable params: 0
_________________________________________________________________
GENERATION: 67
Model: "model_66"
_________________________________________________________________
 Layer (type)                Output Shape              Param #   
=================================================================
 input_67 (InputLayer)       [(None, 28, 28, 1)]       0         
                                                                 
 conv2d_664 (Conv2D)         (None, 14, 14, 11)        286       
                                                                 
 max_pooling2d_664 (MaxPooli  (None, 7, 7, 11)         0         
 ng2D)                                                           
                                                                 
 conv2d_665 (Conv2D)         (None, 4, 4, 9)           900       
                                                                 
 max_pooling2d_665 (MaxPooli  (None, 2, 2, 9)          0         
 ng2D)                                                           
                                                                 
 flatten_332 (Flatten)       (None, 36)                0         
                                                                 
 dropout_332 (Dropout)       (None, 36)                0         
                                                                 
 dense_332 (Dense)           (None, 10)                370       
                                                                 
=================================================================
Total params: 1,556
Trainable params: 1,556
Non-trainable params: 0
_________________________________________________________________
GENERATION: 68
Model: "model_67"
_________________________________________________________________
 Layer (type)                Output Shape              Param #   
=================================================================
 input_68 (InputLayer)       [(None, 28, 28, 1)]       0         
                                                                 
 conv2d_674 (Conv2D)         (None, 14, 14, 11)        286       
                                                                 
 max_pooling2d_674 (MaxPooli  (None, 7, 7, 11)         0         
 ng2D)                                                           
                                                                 
 conv2d_675 (Conv2D)         (None, 4, 4, 9)           900       
                                                                 
 max_pooling2d_675 (MaxPooli  (None, 2, 2, 9)          0         
 ng2D)                                                           
                                                                 
 flatten_337 (Flatten)       (None, 36)                0         
                                                                 
 dropout_337 (Dropout)       (None, 36)                0         
                                                                 
 dense_337 (Dense)           (None, 10)                370       
                                                                 
=================================================================
Total params: 1,556
Trainable params: 1,556
Non-trainable params: 0
_________________________________________________________________
GENERATION: 69
Model: "model_68"
_________________________________________________________________
 Layer (type)                Output Shape              Param #   
=================================================================
 input_69 (InputLayer)       [(None, 28, 28, 1)]       0         
                                                                 
 conv2d_682 (Conv2D)         (None, 14, 14, 11)        286       
                                                                 
 max_pooling2d_682 (MaxPooli  (None, 7, 7, 11)         0         
 ng2D)                                                           
                                                                 
 conv2d_683 (Conv2D)         (None, 4, 4, 9)           900       
                                                                 
 max_pooling2d_683 (MaxPooli  (None, 2, 2, 9)          0         
 ng2D)                                                           
                                                                 
 flatten_341 (Flatten)       (None, 36)                0         
                                                                 
 dropout_341 (Dropout)       (None, 36)                0         
                                                                 
 dense_341 (Dense)           (None, 10)                370       
                                                                 
=================================================================
Total params: 1,556
Trainable params: 1,556
Non-trainable params: 0
_________________________________________________________________
GENERATION: 70
Model: "model_69"
_________________________________________________________________
 Layer (type)                Output Shape              Param #   
=================================================================
 input_70 (InputLayer)       [(None, 28, 28, 1)]       0         
                                                                 
 conv2d_692 (Conv2D)         (None, 14, 14, 11)        286       
                                                                 
 max_pooling2d_692 (MaxPooli  (None, 7, 7, 11)         0         
 ng2D)                                                           
                                                                 
 conv2d_693 (Conv2D)         (None, 4, 4, 9)           900       
                                                                 
 max_pooling2d_693 (MaxPooli  (None, 2, 2, 9)          0         
 ng2D)                                                           
                                                                 
 flatten_346 (Flatten)       (None, 36)                0         
                                                                 
 dropout_346 (Dropout)       (None, 36)                0         
                                                                 
 dense_346 (Dense)           (None, 10)                370       
                                                                 
=================================================================
Total params: 1,556
Trainable params: 1,556
Non-trainable params: 0
_________________________________________________________________
GENERATION: 71
Model: "model_70"
_________________________________________________________________
 Layer (type)                Output Shape              Param #   
=================================================================
 input_71 (InputLayer)       [(None, 28, 28, 1)]       0         
                                                                 
 conv2d_702 (Conv2D)         (None, 14, 14, 11)        286       
                                                                 
 max_pooling2d_702 (MaxPooli  (None, 7, 7, 11)         0         
 ng2D)                                                           
                                                                 
 conv2d_703 (Conv2D)         (None, 4, 4, 9)           900       
                                                                 
 max_pooling2d_703 (MaxPooli  (None, 2, 2, 9)          0         
 ng2D)                                                           
                                                                 
 flatten_351 (Flatten)       (None, 36)                0         
                                                                 
 dropout_351 (Dropout)       (None, 36)                0         
                                                                 
 dense_351 (Dense)           (None, 10)                370       
                                                                 
=================================================================
Total params: 1,556
Trainable params: 1,556
Non-trainable params: 0
_________________________________________________________________
GENERATION: 72
Model: "model_71"
_________________________________________________________________
 Layer (type)                Output Shape              Param #   
=================================================================
 input_72 (InputLayer)       [(None, 28, 28, 1)]       0         
                                                                 
 conv2d_712 (Conv2D)         (None, 14, 14, 11)        286       
                                                                 
 max_pooling2d_712 (MaxPooli  (None, 7, 7, 11)         0         
 ng2D)                                                           
                                                                 
 conv2d_713 (Conv2D)         (None, 4, 4, 9)           900       
                                                                 
 max_pooling2d_713 (MaxPooli  (None, 2, 2, 9)          0         
 ng2D)                                                           
                                                                 
 flatten_356 (Flatten)       (None, 36)                0         
                                                                 
 dropout_356 (Dropout)       (None, 36)                0         
                                                                 
 dense_356 (Dense)           (None, 10)                370       
                                                                 
=================================================================
Total params: 1,556
Trainable params: 1,556
Non-trainable params: 0
_________________________________________________________________
GENERATION: 73
Model: "model_72"
_________________________________________________________________
 Layer (type)                Output Shape              Param #   
=================================================================
 input_73 (InputLayer)       [(None, 28, 28, 1)]       0         
                                                                 
 conv2d_722 (Conv2D)         (None, 14, 14, 11)        286       
                                                                 
 max_pooling2d_722 (MaxPooli  (None, 7, 7, 11)         0         
 ng2D)                                                           
                                                                 
 conv2d_723 (Conv2D)         (None, 4, 4, 9)           900       
                                                                 
 max_pooling2d_723 (MaxPooli  (None, 2, 2, 9)          0         
 ng2D)                                                           
                                                                 
 flatten_361 (Flatten)       (None, 36)                0         
                                                                 
 dropout_361 (Dropout)       (None, 36)                0         
                                                                 
 dense_361 (Dense)           (None, 10)                370       
                                                                 
=================================================================
Total params: 1,556
Trainable params: 1,556
Non-trainable params: 0
_________________________________________________________________
GENERATION: 74
Model: "model_73"
_________________________________________________________________
 Layer (type)                Output Shape              Param #   
=================================================================
 input_74 (InputLayer)       [(None, 28, 28, 1)]       0         
                                                                 
 conv2d_738 (Conv2D)         (None, 14, 14, 11)        286       
                                                                 
 max_pooling2d_738 (MaxPooli  (None, 7, 7, 11)         0         
 ng2D)                                                           
                                                                 
 conv2d_739 (Conv2D)         (None, 4, 4, 9)           900       
                                                                 
 max_pooling2d_739 (MaxPooli  (None, 2, 2, 9)          0         
 ng2D)                                                           
                                                                 
 flatten_369 (Flatten)       (None, 36)                0         
                                                                 
 dropout_369 (Dropout)       (None, 36)                0         
                                                                 
 dense_369 (Dense)           (None, 10)                370       
                                                                 
=================================================================
Total params: 1,556
Trainable params: 1,556
Non-trainable params: 0
_________________________________________________________________
GENERATION: 75
Model: "model_74"
_________________________________________________________________
 Layer (type)                Output Shape              Param #   
=================================================================
 input_75 (InputLayer)       [(None, 28, 28, 1)]       0         
                                                                 
 conv2d_744 (Conv2D)         (None, 14, 14, 11)        286       
                                                                 
 max_pooling2d_744 (MaxPooli  (None, 7, 7, 11)         0         
 ng2D)                                                           
                                                                 
 conv2d_745 (Conv2D)         (None, 4, 4, 9)           900       
                                                                 
 max_pooling2d_745 (MaxPooli  (None, 2, 2, 9)          0         
 ng2D)                                                           
                                                                 
 flatten_372 (Flatten)       (None, 36)                0         
                                                                 
 dropout_372 (Dropout)       (None, 36)                0         
                                                                 
 dense_372 (Dense)           (None, 10)                370       
                                                                 
=================================================================
Total params: 1,556
Trainable params: 1,556
Non-trainable params: 0
_________________________________________________________________
GENERATION: 76
Model: "model_75"
_________________________________________________________________
 Layer (type)                Output Shape              Param #   
=================================================================
 input_76 (InputLayer)       [(None, 28, 28, 1)]       0         
                                                                 
 conv2d_752 (Conv2D)         (None, 14, 14, 11)        286       
                                                                 
 max_pooling2d_752 (MaxPooli  (None, 7, 7, 11)         0         
 ng2D)                                                           
                                                                 
 conv2d_753 (Conv2D)         (None, 4, 4, 9)           900       
                                                                 
 max_pooling2d_753 (MaxPooli  (None, 2, 2, 9)          0         
 ng2D)                                                           
                                                                 
 flatten_376 (Flatten)       (None, 36)                0         
                                                                 
 dropout_376 (Dropout)       (None, 36)                0         
                                                                 
 dense_376 (Dense)           (None, 10)                370       
                                                                 
=================================================================
Total params: 1,556
Trainable params: 1,556
Non-trainable params: 0
_________________________________________________________________
GENERATION: 77
Model: "model_76"
_________________________________________________________________
 Layer (type)                Output Shape              Param #   
=================================================================
 input_77 (InputLayer)       [(None, 28, 28, 1)]       0         
                                                                 
 conv2d_762 (Conv2D)         (None, 14, 14, 11)        286       
                                                                 
 max_pooling2d_762 (MaxPooli  (None, 7, 7, 11)         0         
 ng2D)                                                           
                                                                 
 conv2d_763 (Conv2D)         (None, 4, 4, 9)           900       
                                                                 
 max_pooling2d_763 (MaxPooli  (None, 2, 2, 9)          0         
 ng2D)                                                           
                                                                 
 flatten_381 (Flatten)       (None, 36)                0         
                                                                 
 dropout_381 (Dropout)       (None, 36)                0         
                                                                 
 dense_381 (Dense)           (None, 10)                370       
                                                                 
=================================================================
Total params: 1,556
Trainable params: 1,556
Non-trainable params: 0
_________________________________________________________________
GENERATION: 78
Model: "model_77"
_________________________________________________________________
 Layer (type)                Output Shape              Param #   
=================================================================
 input_78 (InputLayer)       [(None, 28, 28, 1)]       0         
                                                                 
 conv2d_772 (Conv2D)         (None, 14, 14, 11)        286       
                                                                 
 max_pooling2d_772 (MaxPooli  (None, 7, 7, 11)         0         
 ng2D)                                                           
                                                                 
 conv2d_773 (Conv2D)         (None, 4, 4, 9)           900       
                                                                 
 max_pooling2d_773 (MaxPooli  (None, 2, 2, 9)          0         
 ng2D)                                                           
                                                                 
 flatten_386 (Flatten)       (None, 36)                0         
                                                                 
 dropout_386 (Dropout)       (None, 36)                0         
                                                                 
 dense_386 (Dense)           (None, 10)                370       
                                                                 
=================================================================
Total params: 1,556
Trainable params: 1,556
Non-trainable params: 0
_________________________________________________________________
GENERATION: 79
Model: "model_78"
_________________________________________________________________
 Layer (type)                Output Shape              Param #   
=================================================================
 input_79 (InputLayer)       [(None, 28, 28, 1)]       0         
                                                                 
 conv2d_786 (Conv2D)         (None, 14, 14, 11)        286       
                                                                 
 max_pooling2d_786 (MaxPooli  (None, 7, 7, 11)         0         
 ng2D)                                                           
                                                                 
 conv2d_787 (Conv2D)         (None, 4, 4, 9)           900       
                                                                 
 max_pooling2d_787 (MaxPooli  (None, 2, 2, 9)          0         
 ng2D)                                                           
                                                                 
 flatten_393 (Flatten)       (None, 36)                0         
                                                                 
 dropout_393 (Dropout)       (None, 36)                0         
                                                                 
 dense_393 (Dense)           (None, 10)                370       
                                                                 
=================================================================
Total params: 1,556
Trainable params: 1,556
Non-trainable params: 0
_________________________________________________________________
GENERATION: 80
Model: "model_79"
_________________________________________________________________
 Layer (type)                Output Shape              Param #   
=================================================================
 input_80 (InputLayer)       [(None, 28, 28, 1)]       0         
                                                                 
 conv2d_798 (Conv2D)         (None, 14, 14, 11)        286       
                                                                 
 max_pooling2d_798 (MaxPooli  (None, 7, 7, 11)         0         
 ng2D)                                                           
                                                                 
 conv2d_799 (Conv2D)         (None, 4, 4, 9)           900       
                                                                 
 max_pooling2d_799 (MaxPooli  (None, 2, 2, 9)          0         
 ng2D)                                                           
                                                                 
 flatten_399 (Flatten)       (None, 36)                0         
                                                                 
 dropout_399 (Dropout)       (None, 36)                0         
                                                                 
 dense_399 (Dense)           (None, 10)                370       
                                                                 
=================================================================
Total params: 1,556
Trainable params: 1,556
Non-trainable params: 0
_________________________________________________________________
GENERATION: 81
Model: "model_80"
_________________________________________________________________
 Layer (type)                Output Shape              Param #   
=================================================================
 input_81 (InputLayer)       [(None, 28, 28, 1)]       0         
                                                                 
 conv2d_804 (Conv2D)         (None, 14, 14, 11)        286       
                                                                 
 max_pooling2d_804 (MaxPooli  (None, 7, 7, 11)         0         
 ng2D)                                                           
                                                                 
 conv2d_805 (Conv2D)         (None, 4, 4, 9)           900       
                                                                 
 max_pooling2d_805 (MaxPooli  (None, 2, 2, 9)          0         
 ng2D)                                                           
                                                                 
 flatten_402 (Flatten)       (None, 36)                0         
                                                                 
 dropout_402 (Dropout)       (None, 36)                0         
                                                                 
 dense_402 (Dense)           (None, 10)                370       
                                                                 
=================================================================
Total params: 1,556
Trainable params: 1,556
Non-trainable params: 0
_________________________________________________________________
GENERATION: 82
Model: "model_81"
_________________________________________________________________
 Layer (type)                Output Shape              Param #   
=================================================================
 input_82 (InputLayer)       [(None, 28, 28, 1)]       0         
                                                                 
 conv2d_816 (Conv2D)         (None, 14, 14, 11)        286       
                                                                 
 max_pooling2d_816 (MaxPooli  (None, 7, 7, 11)         0         
 ng2D)                                                           
                                                                 
 conv2d_817 (Conv2D)         (None, 4, 4, 9)           900       
                                                                 
 max_pooling2d_817 (MaxPooli  (None, 2, 2, 9)          0         
 ng2D)                                                           
                                                                 
 flatten_408 (Flatten)       (None, 36)                0         
                                                                 
 dropout_408 (Dropout)       (None, 36)                0         
                                                                 
 dense_408 (Dense)           (None, 10)                370       
                                                                 
=================================================================
Total params: 1,556
Trainable params: 1,556
Non-trainable params: 0
_________________________________________________________________
GENERATION: 83
Model: "model_82"
_________________________________________________________________
 Layer (type)                Output Shape              Param #   
=================================================================
 input_83 (InputLayer)       [(None, 28, 28, 1)]       0         
                                                                 
 conv2d_824 (Conv2D)         (None, 14, 14, 11)        286       
                                                                 
 max_pooling2d_824 (MaxPooli  (None, 7, 7, 11)         0         
 ng2D)                                                           
                                                                 
 conv2d_825 (Conv2D)         (None, 4, 4, 9)           900       
                                                                 
 max_pooling2d_825 (MaxPooli  (None, 2, 2, 9)          0         
 ng2D)                                                           
                                                                 
 flatten_412 (Flatten)       (None, 36)                0         
                                                                 
 dropout_412 (Dropout)       (None, 36)                0         
                                                                 
 dense_412 (Dense)           (None, 10)                370       
                                                                 
=================================================================
Total params: 1,556
Trainable params: 1,556
Non-trainable params: 0
_________________________________________________________________
GENERATION: 84
Model: "model_83"
_________________________________________________________________
 Layer (type)                Output Shape              Param #   
=================================================================
 input_84 (InputLayer)       [(None, 28, 28, 1)]       0         
                                                                 
 conv2d_838 (Conv2D)         (None, 14, 14, 11)        286       
                                                                 
 max_pooling2d_838 (MaxPooli  (None, 7, 7, 11)         0         
 ng2D)                                                           
                                                                 
 conv2d_839 (Conv2D)         (None, 4, 4, 9)           900       
                                                                 
 max_pooling2d_839 (MaxPooli  (None, 2, 2, 9)          0         
 ng2D)                                                           
                                                                 
 flatten_419 (Flatten)       (None, 36)                0         
                                                                 
 dropout_419 (Dropout)       (None, 36)                0         
                                                                 
 dense_419 (Dense)           (None, 10)                370       
                                                                 
=================================================================
Total params: 1,556
Trainable params: 1,556
Non-trainable params: 0
_________________________________________________________________
GENERATION: 85
Model: "model_84"
_________________________________________________________________
 Layer (type)                Output Shape              Param #   
=================================================================
 input_85 (InputLayer)       [(None, 28, 28, 1)]       0         
                                                                 
 conv2d_844 (Conv2D)         (None, 14, 14, 11)        286       
                                                                 
 max_pooling2d_844 (MaxPooli  (None, 7, 7, 11)         0         
 ng2D)                                                           
                                                                 
 conv2d_845 (Conv2D)         (None, 4, 4, 9)           900       
                                                                 
 max_pooling2d_845 (MaxPooli  (None, 2, 2, 9)          0         
 ng2D)                                                           
                                                                 
 flatten_422 (Flatten)       (None, 36)                0         
                                                                 
 dropout_422 (Dropout)       (None, 36)                0         
                                                                 
 dense_422 (Dense)           (None, 10)                370       
                                                                 
=================================================================
Total params: 1,556
Trainable params: 1,556
Non-trainable params: 0
_________________________________________________________________
GENERATION: 86
Model: "model_85"
_________________________________________________________________
 Layer (type)                Output Shape              Param #   
=================================================================
 input_86 (InputLayer)       [(None, 28, 28, 1)]       0         
                                                                 
 conv2d_854 (Conv2D)         (None, 14, 14, 11)        286       
                                                                 
 max_pooling2d_854 (MaxPooli  (None, 7, 7, 11)         0         
 ng2D)                                                           
                                                                 
 conv2d_855 (Conv2D)         (None, 4, 4, 9)           900       
                                                                 
 max_pooling2d_855 (MaxPooli  (None, 2, 2, 9)          0         
 ng2D)                                                           
                                                                 
 flatten_427 (Flatten)       (None, 36)                0         
                                                                 
 dropout_427 (Dropout)       (None, 36)                0         
                                                                 
 dense_427 (Dense)           (None, 10)                370       
                                                                 
=================================================================
Total params: 1,556
Trainable params: 1,556
Non-trainable params: 0
_________________________________________________________________
GENERATION: 87
Model: "model_86"
_________________________________________________________________
 Layer (type)                Output Shape              Param #   
=================================================================
 input_87 (InputLayer)       [(None, 28, 28, 1)]       0         
                                                                 
 conv2d_864 (Conv2D)         (None, 14, 14, 11)        286       
                                                                 
 max_pooling2d_864 (MaxPooli  (None, 7, 7, 11)         0         
 ng2D)                                                           
                                                                 
 conv2d_865 (Conv2D)         (None, 4, 4, 9)           900       
                                                                 
 max_pooling2d_865 (MaxPooli  (None, 2, 2, 9)          0         
 ng2D)                                                           
                                                                 
 flatten_432 (Flatten)       (None, 36)                0         
                                                                 
 dropout_432 (Dropout)       (None, 36)                0         
                                                                 
 dense_432 (Dense)           (None, 10)                370       
                                                                 
=================================================================
Total params: 1,556
Trainable params: 1,556
Non-trainable params: 0
_________________________________________________________________
GENERATION: 88
Model: "model_87"
_________________________________________________________________
 Layer (type)                Output Shape              Param #   
=================================================================
 input_88 (InputLayer)       [(None, 28, 28, 1)]       0         
                                                                 
 conv2d_874 (Conv2D)         (None, 14, 14, 11)        286       
                                                                 
 max_pooling2d_874 (MaxPooli  (None, 7, 7, 11)         0         
 ng2D)                                                           
                                                                 
 conv2d_875 (Conv2D)         (None, 4, 4, 9)           900       
                                                                 
 max_pooling2d_875 (MaxPooli  (None, 2, 2, 9)          0         
 ng2D)                                                           
                                                                 
 flatten_437 (Flatten)       (None, 36)                0         
                                                                 
 dropout_437 (Dropout)       (None, 36)                0         
                                                                 
 dense_437 (Dense)           (None, 10)                370       
                                                                 
=================================================================
Total params: 1,556
Trainable params: 1,556
Non-trainable params: 0
_________________________________________________________________
GENERATION: 89
Model: "model_88"
_________________________________________________________________
 Layer (type)                Output Shape              Param #   
=================================================================
 input_89 (InputLayer)       [(None, 28, 28, 1)]       0         
                                                                 
 conv2d_888 (Conv2D)         (None, 14, 14, 11)        286       
                                                                 
 max_pooling2d_888 (MaxPooli  (None, 7, 7, 11)         0         
 ng2D)                                                           
                                                                 
 conv2d_889 (Conv2D)         (None, 4, 4, 9)           900       
                                                                 
 max_pooling2d_889 (MaxPooli  (None, 2, 2, 9)          0         
 ng2D)                                                           
                                                                 
 flatten_444 (Flatten)       (None, 36)                0         
                                                                 
 dropout_444 (Dropout)       (None, 36)                0         
                                                                 
 dense_444 (Dense)           (None, 10)                370       
                                                                 
=================================================================
Total params: 1,556
Trainable params: 1,556
Non-trainable params: 0
_________________________________________________________________
GENERATION: 90
Model: "model_89"
_________________________________________________________________
 Layer (type)                Output Shape              Param #   
=================================================================
 input_90 (InputLayer)       [(None, 28, 28, 1)]       0         
                                                                 
 conv2d_894 (Conv2D)         (None, 14, 14, 11)        286       
                                                                 
 max_pooling2d_894 (MaxPooli  (None, 7, 7, 11)         0         
 ng2D)                                                           
                                                                 
 conv2d_895 (Conv2D)         (None, 4, 4, 9)           900       
                                                                 
 max_pooling2d_895 (MaxPooli  (None, 2, 2, 9)          0         
 ng2D)                                                           
                                                                 
 flatten_447 (Flatten)       (None, 36)                0         
                                                                 
 dropout_447 (Dropout)       (None, 36)                0         
                                                                 
 dense_447 (Dense)           (None, 10)                370       
                                                                 
=================================================================
Total params: 1,556
Trainable params: 1,556
Non-trainable params: 0
_________________________________________________________________
GENERATION: 91
Model: "model_90"
_________________________________________________________________
 Layer (type)                Output Shape              Param #   
=================================================================
 input_91 (InputLayer)       [(None, 28, 28, 1)]       0         
                                                                 
 conv2d_904 (Conv2D)         (None, 14, 14, 11)        286       
                                                                 
 max_pooling2d_904 (MaxPooli  (None, 7, 7, 11)         0         
 ng2D)                                                           
                                                                 
 conv2d_905 (Conv2D)         (None, 4, 4, 9)           900       
                                                                 
 max_pooling2d_905 (MaxPooli  (None, 2, 2, 9)          0         
 ng2D)                                                           
                                                                 
 flatten_452 (Flatten)       (None, 36)                0         
                                                                 
 dropout_452 (Dropout)       (None, 36)                0         
                                                                 
 dense_452 (Dense)           (None, 10)                370       
                                                                 
=================================================================
Total params: 1,556
Trainable params: 1,556
Non-trainable params: 0
_________________________________________________________________
GENERATION: 92
Model: "model_91"
_________________________________________________________________
 Layer (type)                Output Shape              Param #   
=================================================================
 input_92 (InputLayer)       [(None, 28, 28, 1)]       0         
                                                                 
 conv2d_912 (Conv2D)         (None, 14, 14, 11)        286       
                                                                 
 max_pooling2d_912 (MaxPooli  (None, 7, 7, 11)         0         
 ng2D)                                                           
                                                                 
 conv2d_913 (Conv2D)         (None, 4, 4, 9)           900       
                                                                 
 max_pooling2d_913 (MaxPooli  (None, 2, 2, 9)          0         
 ng2D)                                                           
                                                                 
 flatten_456 (Flatten)       (None, 36)                0         
                                                                 
 dropout_456 (Dropout)       (None, 36)                0         
                                                                 
 dense_456 (Dense)           (None, 10)                370       
                                                                 
=================================================================
Total params: 1,556
Trainable params: 1,556
Non-trainable params: 0
_________________________________________________________________
GENERATION: 93
Model: "model_92"
_________________________________________________________________
 Layer (type)                Output Shape              Param #   
=================================================================
 input_93 (InputLayer)       [(None, 28, 28, 1)]       0         
                                                                 
 conv2d_920 (Conv2D)         (None, 14, 14, 11)        286       
                                                                 
 max_pooling2d_920 (MaxPooli  (None, 7, 7, 11)         0         
 ng2D)                                                           
                                                                 
 conv2d_921 (Conv2D)         (None, 4, 4, 9)           900       
                                                                 
 max_pooling2d_921 (MaxPooli  (None, 2, 2, 9)          0         
 ng2D)                                                           
                                                                 
 flatten_460 (Flatten)       (None, 36)                0         
                                                                 
 dropout_460 (Dropout)       (None, 36)                0         
                                                                 
 dense_460 (Dense)           (None, 10)                370       
                                                                 
=================================================================
Total params: 1,556
Trainable params: 1,556
Non-trainable params: 0
_________________________________________________________________
GENERATION: 94
Model: "model_93"
_________________________________________________________________
 Layer (type)                Output Shape              Param #   
=================================================================
 input_94 (InputLayer)       [(None, 28, 28, 1)]       0         
                                                                 
 conv2d_930 (Conv2D)         (None, 14, 14, 11)        286       
                                                                 
 max_pooling2d_930 (MaxPooli  (None, 7, 7, 11)         0         
 ng2D)                                                           
                                                                 
 conv2d_931 (Conv2D)         (None, 4, 4, 9)           900       
                                                                 
 max_pooling2d_931 (MaxPooli  (None, 2, 2, 9)          0         
 ng2D)                                                           
                                                                 
 flatten_465 (Flatten)       (None, 36)                0         
                                                                 
 dropout_465 (Dropout)       (None, 36)                0         
                                                                 
 dense_465 (Dense)           (None, 10)                370       
                                                                 
=================================================================
Total params: 1,556
Trainable params: 1,556
Non-trainable params: 0
_________________________________________________________________
GENERATION: 95
Model: "model_94"
_________________________________________________________________
 Layer (type)                Output Shape              Param #   
=================================================================
 input_95 (InputLayer)       [(None, 28, 28, 1)]       0         
                                                                 
 conv2d_940 (Conv2D)         (None, 14, 14, 11)        286       
                                                                 
 max_pooling2d_940 (MaxPooli  (None, 7, 7, 11)         0         
 ng2D)                                                           
                                                                 
 conv2d_941 (Conv2D)         (None, 4, 4, 9)           900       
                                                                 
 max_pooling2d_941 (MaxPooli  (None, 2, 2, 9)          0         
 ng2D)                                                           
                                                                 
 flatten_470 (Flatten)       (None, 36)                0         
                                                                 
 dropout_470 (Dropout)       (None, 36)                0         
                                                                 
 dense_470 (Dense)           (None, 10)                370       
                                                                 
=================================================================
Total params: 1,556
Trainable params: 1,556
Non-trainable params: 0
_________________________________________________________________
GENERATION: 96
Model: "model_95"
_________________________________________________________________
 Layer (type)                Output Shape              Param #   
=================================================================
 input_96 (InputLayer)       [(None, 28, 28, 1)]       0         
                                                                 
 conv2d_950 (Conv2D)         (None, 14, 14, 11)        286       
                                                                 
 max_pooling2d_950 (MaxPooli  (None, 7, 7, 11)         0         
 ng2D)                                                           
                                                                 
 conv2d_951 (Conv2D)         (None, 4, 4, 9)           900       
                                                                 
 max_pooling2d_951 (MaxPooli  (None, 2, 2, 9)          0         
 ng2D)                                                           
                                                                 
 flatten_475 (Flatten)       (None, 36)                0         
                                                                 
 dropout_475 (Dropout)       (None, 36)                0         
                                                                 
 dense_475 (Dense)           (None, 10)                370       
                                                                 
=================================================================
Total params: 1,556
Trainable params: 1,556
Non-trainable params: 0
_________________________________________________________________
GENERATION: 97
Model: "model_96"
_________________________________________________________________
 Layer (type)                Output Shape              Param #   
=================================================================
 input_97 (InputLayer)       [(None, 28, 28, 1)]       0         
                                                                 
 conv2d_960 (Conv2D)         (None, 14, 14, 11)        286       
                                                                 
 max_pooling2d_960 (MaxPooli  (None, 7, 7, 11)         0         
 ng2D)                                                           
                                                                 
 conv2d_961 (Conv2D)         (None, 4, 4, 9)           900       
                                                                 
 max_pooling2d_961 (MaxPooli  (None, 2, 2, 9)          0         
 ng2D)                                                           
                                                                 
 flatten_480 (Flatten)       (None, 36)                0         
                                                                 
 dropout_480 (Dropout)       (None, 36)                0         
                                                                 
 dense_480 (Dense)           (None, 10)                370       
                                                                 
=================================================================
Total params: 1,556
Trainable params: 1,556
Non-trainable params: 0
_________________________________________________________________
GENERATION: 98
Model: "model_97"
_________________________________________________________________
 Layer (type)                Output Shape              Param #   
=================================================================
 input_98 (InputLayer)       [(None, 28, 28, 1)]       0         
                                                                 
 conv2d_970 (Conv2D)         (None, 14, 14, 11)        286       
                                                                 
 max_pooling2d_970 (MaxPooli  (None, 7, 7, 11)         0         
 ng2D)                                                           
                                                                 
 conv2d_971 (Conv2D)         (None, 4, 4, 9)           900       
                                                                 
 max_pooling2d_971 (MaxPooli  (None, 2, 2, 9)          0         
 ng2D)                                                           
                                                                 
 flatten_485 (Flatten)       (None, 36)                0         
                                                                 
 dropout_485 (Dropout)       (None, 36)                0         
                                                                 
 dense_485 (Dense)           (None, 10)                370       
                                                                 
=================================================================
Total params: 1,556
Trainable params: 1,556
Non-trainable params: 0
_________________________________________________________________
GENERATION: 99
Model: "model_98"
_________________________________________________________________
 Layer (type)                Output Shape              Param #   
=================================================================
 input_99 (InputLayer)       [(None, 28, 28, 1)]       0         
                                                                 
 conv2d_980 (Conv2D)         (None, 14, 14, 11)        286       
                                                                 
 max_pooling2d_980 (MaxPooli  (None, 7, 7, 11)         0         
 ng2D)                                                           
                                                                 
 conv2d_981 (Conv2D)         (None, 4, 4, 9)           900       
                                                                 
 max_pooling2d_981 (MaxPooli  (None, 2, 2, 9)          0         
 ng2D)                                                           
                                                                 
 flatten_490 (Flatten)       (None, 36)                0         
                                                                 
 dropout_490 (Dropout)       (None, 36)                0         
                                                                 
 dense_490 (Dense)           (None, 10)                370       
                                                                 
=================================================================
Total params: 1,556
Trainable params: 1,556
Non-trainable params: 0
_________________________________________________________________
GENERATION: 100
Model: "model_99"
_________________________________________________________________
 Layer (type)                Output Shape              Param #   
=================================================================
 input_100 (InputLayer)      [(None, 28, 28, 1)]       0         
                                                                 
 conv2d_990 (Conv2D)         (None, 14, 14, 11)        286       
                                                                 
 max_pooling2d_990 (MaxPooli  (None, 7, 7, 11)         0         
 ng2D)                                                           
                                                                 
 conv2d_991 (Conv2D)         (None, 4, 4, 9)           900       
                                                                 
 max_pooling2d_991 (MaxPooli  (None, 2, 2, 9)          0         
 ng2D)                                                           
                                                                 
 flatten_495 (Flatten)       (None, 36)                0         
                                                                 
 dropout_495 (Dropout)       (None, 36)                0         
                                                                 
 dense_495 (Dense)           (None, 10)                370       
                                                                 
=================================================================
Total params: 1,556
Trainable params: 1,556
Non-trainable params: 0
_________________________________________________________________
